{"class_name": "Model", "keras_version": "2.0.6", "config": {"layers": [{"class_name": "InputLayer", "config": {"dtype": "float32", "batch_input_shape": [null, 1800, 40], "name": "log_mfes", "sparse": false}, "inbound_nodes": [], "name": "log_mfes"}, {"class_name": "Conv1D", "config": {"kernel_constraint": null, "kernel_initializer": {"class_name": "VarianceScaling", "config": {"distribution": "uniform", "scale": 1.0, "seed": null, "mode": "fan_avg"}}, "name": "conv1d_1", "bias_regularizer": null, "bias_constraint": null, "activation": "linear", "trainable": true, "padding": "same", "strides": [1], "dilation_rate": [1], "kernel_regularizer": null, "filters": 64, "bias_initializer": {"class_name": "Zeros", "config": {}}, "use_bias": true, "activity_regularizer": null, "kernel_size": [5]}, "inbound_nodes": [[["log_mfes", 0, 0, {}]]], "name": "conv1d_1"}, {"class_name": "BatchNormalization", "config": {"beta_constraint": null, "gamma_initializer": {"class_name": "Ones", "config": {}}, "moving_mean_initializer": {"class_name": "Zeros", "config": {}}, "name": "batch_normalization_1", "epsilon": 0.001, "trainable": true, "moving_variance_initializer": {"class_name": "Ones", "config": {}}, "beta_initializer": {"class_name": "Zeros", "config": {}}, "scale": true, "axis": -1, "gamma_constraint": null, "gamma_regularizer": null, "beta_regularizer": null, "momentum": 0.99, "center": true}, "inbound_nodes": [[["conv1d_1", 0, 0, {}]]], "name": "batch_normalization_1"}, {"class_name": "Activation", "config": {"activation": "relu", "trainable": true, "name": "activation_1"}, "inbound_nodes": [[["batch_normalization_1", 0, 0, {}]]], "name": "activation_1"}, {"class_name": "Concatenate", "config": {"trainable": true, "name": "concatenate_1", "axis": -1}, "inbound_nodes": [[["activation_1", 0, 0, {}], ["log_mfes", 0, 0, {}]]], "name": "concatenate_1"}, {"class_name": "Conv1D", "config": {"kernel_constraint": null, "kernel_initializer": {"class_name": "VarianceScaling", "config": {"distribution": "uniform", "scale": 1.0, "seed": null, "mode": "fan_avg"}}, "name": "conv1d_2", "bias_regularizer": null, "bias_constraint": null, "activation": "linear", "trainable": true, "padding": "same", "strides": [1], "dilation_rate": [2], "kernel_regularizer": null, "filters": 64, "bias_initializer": {"class_name": "Zeros", "config": {}}, "use_bias": true, "activity_regularizer": null, "kernel_size": [5]}, "inbound_nodes": [[["concatenate_1", 0, 0, {}]]], "name": "conv1d_2"}, {"class_name": "BatchNormalization", "config": {"beta_constraint": null, "gamma_initializer": {"class_name": "Ones", "config": {}}, "moving_mean_initializer": {"class_name": "Zeros", "config": {}}, "name": "batch_normalization_2", "epsilon": 0.001, "trainable": true, "moving_variance_initializer": {"class_name": "Ones", "config": {}}, "beta_initializer": {"class_name": "Zeros", "config": {}}, "scale": true, "axis": -1, "gamma_constraint": null, "gamma_regularizer": null, "beta_regularizer": null, "momentum": 0.99, "center": true}, "inbound_nodes": [[["conv1d_2", 0, 0, {}]]], "name": "batch_normalization_2"}, {"class_name": "Activation", "config": {"activation": "relu", "trainable": true, "name": "activation_2"}, "inbound_nodes": [[["batch_normalization_2", 0, 0, {}]]], "name": "activation_2"}, {"class_name": "Concatenate", "config": {"trainable": true, "name": "concatenate_2", "axis": -1}, "inbound_nodes": [[["activation_2", 0, 0, {}], ["concatenate_1", 0, 0, {}]]], "name": "concatenate_2"}, {"class_name": "Conv1D", "config": {"kernel_constraint": null, "kernel_initializer": {"class_name": "VarianceScaling", "config": {"distribution": "uniform", "scale": 1.0, "seed": null, "mode": "fan_avg"}}, "name": "conv1d_3", "bias_regularizer": null, "bias_constraint": null, "activation": "linear", "trainable": true, "padding": "same", "strides": [1], "dilation_rate": [4], "kernel_regularizer": null, "filters": 64, "bias_initializer": {"class_name": "Zeros", "config": {}}, "use_bias": true, "activity_regularizer": null, "kernel_size": [5]}, "inbound_nodes": [[["concatenate_2", 0, 0, {}]]], "name": "conv1d_3"}, {"class_name": "BatchNormalization", "config": {"beta_constraint": null, "gamma_initializer": {"class_name": "Ones", "config": {}}, "moving_mean_initializer": {"class_name": "Zeros", "config": {}}, "name": "batch_normalization_3", "epsilon": 0.001, "trainable": true, "moving_variance_initializer": {"class_name": "Ones", "config": {}}, "beta_initializer": {"class_name": "Zeros", "config": {}}, "scale": true, "axis": -1, "gamma_constraint": null, "gamma_regularizer": null, "beta_regularizer": null, "momentum": 0.99, "center": true}, "inbound_nodes": [[["conv1d_3", 0, 0, {}]]], "name": "batch_normalization_3"}, {"class_name": "Activation", "config": {"activation": "relu", "trainable": true, "name": "activation_3"}, "inbound_nodes": [[["batch_normalization_3", 0, 0, {}]]], "name": "activation_3"}, {"class_name": "Concatenate", "config": {"trainable": true, "name": "concatenate_3", "axis": -1}, "inbound_nodes": [[["activation_3", 0, 0, {}], ["concatenate_2", 0, 0, {}]]], "name": "concatenate_3"}, {"class_name": "Conv1D", "config": {"kernel_constraint": null, "kernel_initializer": {"class_name": "VarianceScaling", "config": {"distribution": "uniform", "scale": 1.0, "seed": null, "mode": "fan_avg"}}, "name": "conv1d_4", "bias_regularizer": null, "bias_constraint": null, "activation": "linear", "trainable": true, "padding": "same", "strides": [1], "dilation_rate": [8], "kernel_regularizer": null, "filters": 64, "bias_initializer": {"class_name": "Zeros", "config": {}}, "use_bias": true, "activity_regularizer": null, "kernel_size": [5]}, "inbound_nodes": [[["concatenate_3", 0, 0, {}]]], "name": "conv1d_4"}, {"class_name": "BatchNormalization", "config": {"beta_constraint": null, "gamma_initializer": {"class_name": "Ones", "config": {}}, "moving_mean_initializer": {"class_name": "Zeros", "config": {}}, "name": "batch_normalization_4", "epsilon": 0.001, "trainable": true, "moving_variance_initializer": {"class_name": "Ones", "config": {}}, "beta_initializer": {"class_name": "Zeros", "config": {}}, "scale": true, "axis": -1, "gamma_constraint": null, "gamma_regularizer": null, "beta_regularizer": null, "momentum": 0.99, "center": true}, "inbound_nodes": [[["conv1d_4", 0, 0, {}]]], "name": "batch_normalization_4"}, {"class_name": "Activation", "config": {"activation": "relu", "trainable": true, "name": "activation_4"}, "inbound_nodes": [[["batch_normalization_4", 0, 0, {}]]], "name": "activation_4"}, {"class_name": "Concatenate", "config": {"trainable": true, "name": "concatenate_4", "axis": -1}, "inbound_nodes": [[["activation_4", 0, 0, {}], ["concatenate_3", 0, 0, {}]]], "name": "concatenate_4"}, {"class_name": "Conv1D", "config": {"kernel_constraint": null, "kernel_initializer": {"class_name": "VarianceScaling", "config": {"distribution": "uniform", "scale": 1.0, "seed": null, "mode": "fan_avg"}}, "name": "conv1d_5", "bias_regularizer": null, "bias_constraint": null, "activation": "linear", "trainable": true, "padding": "same", "strides": [1], "dilation_rate": [16], "kernel_regularizer": null, "filters": 64, "bias_initializer": {"class_name": "Zeros", "config": {}}, "use_bias": true, "activity_regularizer": null, "kernel_size": [5]}, "inbound_nodes": [[["concatenate_4", 0, 0, {}]]], "name": "conv1d_5"}, {"class_name": "BatchNormalization", "config": {"beta_constraint": null, "gamma_initializer": {"class_name": "Ones", "config": {}}, "moving_mean_initializer": {"class_name": "Zeros", "config": {}}, "name": "batch_normalization_5", "epsilon": 0.001, "trainable": true, "moving_variance_initializer": {"class_name": "Ones", "config": {}}, "beta_initializer": {"class_name": "Zeros", "config": {}}, "scale": true, "axis": -1, "gamma_constraint": null, "gamma_regularizer": null, "beta_regularizer": null, "momentum": 0.99, "center": true}, "inbound_nodes": [[["conv1d_5", 0, 0, {}]]], "name": "batch_normalization_5"}, {"class_name": "Activation", "config": {"activation": "relu", "trainable": true, "name": "activation_5"}, "inbound_nodes": [[["batch_normalization_5", 0, 0, {}]]], "name": "activation_5"}, {"class_name": "Concatenate", "config": {"trainable": true, "name": "concatenate_5", "axis": -1}, "inbound_nodes": [[["activation_5", 0, 0, {}], ["concatenate_4", 0, 0, {}]]], "name": "concatenate_5"}, {"class_name": "Conv1D", "config": {"kernel_constraint": null, "kernel_initializer": {"class_name": "VarianceScaling", "config": {"distribution": "uniform", "scale": 1.0, "seed": null, "mode": "fan_avg"}}, "name": "conv1d_6", "bias_regularizer": null, "bias_constraint": null, "activation": "linear", "trainable": true, "padding": "same", "strides": [1], "dilation_rate": [1], "kernel_regularizer": null, "filters": 64, "bias_initializer": {"class_name": "Zeros", "config": {}}, "use_bias": true, "activity_regularizer": null, "kernel_size": [5]}, "inbound_nodes": [[["concatenate_5", 0, 0, {}]]], "name": "conv1d_6"}, {"class_name": "BatchNormalization", "config": {"beta_constraint": null, "gamma_initializer": {"class_name": "Ones", "config": {}}, "moving_mean_initializer": {"class_name": "Zeros", "config": {}}, "name": "batch_normalization_6", "epsilon": 0.001, "trainable": true, "moving_variance_initializer": {"class_name": "Ones", "config": {}}, "beta_initializer": {"class_name": "Zeros", "config": {}}, "scale": true, "axis": -1, "gamma_constraint": null, "gamma_regularizer": null, "beta_regularizer": null, "momentum": 0.99, "center": true}, "inbound_nodes": [[["conv1d_6", 0, 0, {}]]], "name": "batch_normalization_6"}, {"class_name": "Activation", "config": {"activation": "relu", "trainable": true, "name": "activation_6"}, "inbound_nodes": [[["batch_normalization_6", 0, 0, {}]]], "name": "activation_6"}, {"class_name": "Concatenate", "config": {"trainable": true, "name": "concatenate_6", "axis": -1}, "inbound_nodes": [[["activation_6", 0, 0, {}], ["concatenate_5", 0, 0, {}]]], "name": "concatenate_6"}, {"class_name": "Conv1D", "config": {"kernel_constraint": null, "kernel_initializer": {"class_name": "VarianceScaling", "config": {"distribution": "uniform", "scale": 1.0, "seed": null, "mode": "fan_avg"}}, "name": "conv1d_7", "bias_regularizer": null, "bias_constraint": null, "activation": "linear", "trainable": true, "padding": "same", "strides": [1], "dilation_rate": [2], "kernel_regularizer": null, "filters": 64, "bias_initializer": {"class_name": "Zeros", "config": {}}, "use_bias": true, "activity_regularizer": null, "kernel_size": [5]}, "inbound_nodes": [[["concatenate_6", 0, 0, {}]]], "name": "conv1d_7"}, {"class_name": "BatchNormalization", "config": {"beta_constraint": null, "gamma_initializer": {"class_name": "Ones", "config": {}}, "moving_mean_initializer": {"class_name": "Zeros", "config": {}}, "name": "batch_normalization_7", "epsilon": 0.001, "trainable": true, "moving_variance_initializer": {"class_name": "Ones", "config": {}}, "beta_initializer": {"class_name": "Zeros", "config": {}}, "scale": true, "axis": -1, "gamma_constraint": null, "gamma_regularizer": null, "beta_regularizer": null, "momentum": 0.99, "center": true}, "inbound_nodes": [[["conv1d_7", 0, 0, {}]]], "name": "batch_normalization_7"}, {"class_name": "Activation", "config": {"activation": "relu", "trainable": true, "name": "activation_7"}, "inbound_nodes": [[["batch_normalization_7", 0, 0, {}]]], "name": "activation_7"}, {"class_name": "Concatenate", "config": {"trainable": true, "name": "concatenate_7", "axis": -1}, "inbound_nodes": [[["activation_7", 0, 0, {}], ["concatenate_6", 0, 0, {}]]], "name": "concatenate_7"}, {"class_name": "Conv1D", "config": {"kernel_constraint": null, "kernel_initializer": {"class_name": "VarianceScaling", "config": {"distribution": "uniform", "scale": 1.0, "seed": null, "mode": "fan_avg"}}, "name": "conv1d_8", "bias_regularizer": null, "bias_constraint": null, "activation": "linear", "trainable": true, "padding": "same", "strides": [1], "dilation_rate": [4], "kernel_regularizer": null, "filters": 64, "bias_initializer": {"class_name": "Zeros", "config": {}}, "use_bias": true, "activity_regularizer": null, "kernel_size": [5]}, "inbound_nodes": [[["concatenate_7", 0, 0, {}]]], "name": "conv1d_8"}, {"class_name": "BatchNormalization", "config": {"beta_constraint": null, "gamma_initializer": {"class_name": "Ones", "config": {}}, "moving_mean_initializer": {"class_name": "Zeros", "config": {}}, "name": "batch_normalization_8", "epsilon": 0.001, "trainable": true, "moving_variance_initializer": {"class_name": "Ones", "config": {}}, "beta_initializer": {"class_name": "Zeros", "config": {}}, "scale": true, "axis": -1, "gamma_constraint": null, "gamma_regularizer": null, "beta_regularizer": null, "momentum": 0.99, "center": true}, "inbound_nodes": [[["conv1d_8", 0, 0, {}]]], "name": "batch_normalization_8"}, {"class_name": "Activation", "config": {"activation": "relu", "trainable": true, "name": "activation_8"}, "inbound_nodes": [[["batch_normalization_8", 0, 0, {}]]], "name": "activation_8"}, {"class_name": "Concatenate", "config": {"trainable": true, "name": "concatenate_8", "axis": -1}, "inbound_nodes": [[["activation_8", 0, 0, {}], ["concatenate_7", 0, 0, {}]]], "name": "concatenate_8"}, {"class_name": "Conv1D", "config": {"kernel_constraint": null, "kernel_initializer": {"class_name": "VarianceScaling", "config": {"distribution": "uniform", "scale": 1.0, "seed": null, "mode": "fan_avg"}}, "name": "conv1d_9", "bias_regularizer": null, "bias_constraint": null, "activation": "linear", "trainable": true, "padding": "same", "strides": [1], "dilation_rate": [8], "kernel_regularizer": null, "filters": 64, "bias_initializer": {"class_name": "Zeros", "config": {}}, "use_bias": true, "activity_regularizer": null, "kernel_size": [5]}, "inbound_nodes": [[["concatenate_8", 0, 0, {}]]], "name": "conv1d_9"}, {"class_name": "BatchNormalization", "config": {"beta_constraint": null, "gamma_initializer": {"class_name": "Ones", "config": {}}, "moving_mean_initializer": {"class_name": "Zeros", "config": {}}, "name": "batch_normalization_9", "epsilon": 0.001, "trainable": true, "moving_variance_initializer": {"class_name": "Ones", "config": {}}, "beta_initializer": {"class_name": "Zeros", "config": {}}, "scale": true, "axis": -1, "gamma_constraint": null, "gamma_regularizer": null, "beta_regularizer": null, "momentum": 0.99, "center": true}, "inbound_nodes": [[["conv1d_9", 0, 0, {}]]], "name": "batch_normalization_9"}, {"class_name": "Activation", "config": {"activation": "relu", "trainable": true, "name": "activation_9"}, "inbound_nodes": [[["batch_normalization_9", 0, 0, {}]]], "name": "activation_9"}, {"class_name": "Concatenate", "config": {"trainable": true, "name": "concatenate_9", "axis": -1}, "inbound_nodes": [[["activation_9", 0, 0, {}], ["concatenate_8", 0, 0, {}]]], "name": "concatenate_9"}, {"class_name": "Conv1D", "config": {"kernel_constraint": null, "kernel_initializer": {"class_name": "VarianceScaling", "config": {"distribution": "uniform", "scale": 1.0, "seed": null, "mode": "fan_avg"}}, "name": "conv1d_10", "bias_regularizer": null, "bias_constraint": null, "activation": "linear", "trainable": true, "padding": "same", "strides": [1], "dilation_rate": [16], "kernel_regularizer": null, "filters": 64, "bias_initializer": {"class_name": "Zeros", "config": {}}, "use_bias": true, "activity_regularizer": null, "kernel_size": [5]}, "inbound_nodes": [[["concatenate_9", 0, 0, {}]]], "name": "conv1d_10"}, {"class_name": "BatchNormalization", "config": {"beta_constraint": null, "gamma_initializer": {"class_name": "Ones", "config": {}}, "moving_mean_initializer": {"class_name": "Zeros", "config": {}}, "name": "batch_normalization_10", "epsilon": 0.001, "trainable": true, "moving_variance_initializer": {"class_name": "Ones", "config": {}}, "beta_initializer": {"class_name": "Zeros", "config": {}}, "scale": true, "axis": -1, "gamma_constraint": null, "gamma_regularizer": null, "beta_regularizer": null, "momentum": 0.99, "center": true}, "inbound_nodes": [[["conv1d_10", 0, 0, {}]]], "name": "batch_normalization_10"}, {"class_name": "Activation", "config": {"activation": "relu", "trainable": true, "name": "activation_10"}, "inbound_nodes": [[["batch_normalization_10", 0, 0, {}]]], "name": "activation_10"}, {"class_name": "Concatenate", "config": {"trainable": true, "name": "concatenate_10", "axis": -1}, "inbound_nodes": [[["activation_10", 0, 0, {}], ["concatenate_9", 0, 0, {}]]], "name": "concatenate_10"}, {"class_name": "Conv1D", "config": {"kernel_constraint": null, "kernel_initializer": {"class_name": "VarianceScaling", "config": {"distribution": "uniform", "scale": 1.0, "seed": null, "mode": "fan_avg"}}, "name": "conv1d_11", "bias_regularizer": null, "bias_constraint": null, "activation": "linear", "trainable": true, "padding": "same", "strides": [1], "dilation_rate": [1], "kernel_regularizer": null, "filters": 28, "bias_initializer": {"class_name": "Zeros", "config": {}}, "use_bias": true, "activity_regularizer": null, "kernel_size": [5]}, "inbound_nodes": [[["concatenate_10", 0, 0, {}]]], "name": "conv1d_11"}, {"class_name": "BatchNormalization", "config": {"beta_constraint": null, "gamma_initializer": {"class_name": "Ones", "config": {}}, "moving_mean_initializer": {"class_name": "Zeros", "config": {}}, "name": "batch_normalization_11", "epsilon": 0.001, "trainable": true, "moving_variance_initializer": {"class_name": "Ones", "config": {}}, "beta_initializer": {"class_name": "Zeros", "config": {}}, "scale": true, "axis": -1, "gamma_constraint": null, "gamma_regularizer": null, "beta_regularizer": null, "momentum": 0.99, "center": true}, "inbound_nodes": [[["conv1d_11", 0, 0, {}]]], "name": "batch_normalization_11"}, {"class_name": "Activation", "config": {"activation": "softmax", "trainable": true, "name": "letter_probs"}, "inbound_nodes": [[["batch_normalization_11", 0, 0, {}]]], "name": "letter_probs"}, {"class_name": "InputLayer", "config": {"dtype": "float32", "batch_input_shape": [null, 300], "name": "the_labels", "sparse": false}, "inbound_nodes": [], "name": "the_labels"}, {"class_name": "InputLayer", "config": {"dtype": "int64", "batch_input_shape": [null, 1], "name": "input_length", "sparse": false}, "inbound_nodes": [], "name": "input_length"}, {"class_name": "InputLayer", "config": {"dtype": "int64", "batch_input_shape": [null, 1], "name": "label_length", "sparse": false}, "inbound_nodes": [], "name": "label_length"}, {"class_name": "Lambda", "config": {"function": ["c\u0001\u0000\u0000\u0000\u0005\u0000\u0000\u0000\u0005\u0000\u0000\u0000C\u0000\u0000\u0000s(\u0000\u0000\u0000|\u0000\u0000\\\u0004\u0000}\u0001\u0000}\u0002\u0000}\u0003\u0000}\u0004\u0000t\u0000\u0000j\u0001\u0000|\u0002\u0000|\u0001\u0000|\u0003\u0000|\u0004\u0000\u0083\u0004\u0000S(\u0001\u0000\u0000\u0000N(\u0002\u0000\u0000\u0000t\u0001\u0000\u0000\u0000Kt\u000e\u0000\u0000\u0000ctc_batch_cost(\u0005\u0000\u0000\u0000t\u0004\u0000\u0000\u0000argst\u0006\u0000\u0000\u0000y_predt\u0006\u0000\u0000\u0000labelst\f\u0000\u0000\u0000input_lengtht\f\u0000\u0000\u0000label_length(\u0000\u0000\u0000\u0000(\u0000\u0000\u0000\u0000s\u001e\u0000\u0000\u0000<ipython-input-3-0210d9c8440a>t\u000f\u0000\u0000\u0000ctc_lambda_func\u0001\u0000\u0000\u0000s\u0004\u0000\u0000\u0000\u0000\u0001\u0012\u0001", null, null], "name": "ctc", "trainable": true, "function_type": "lambda", "arguments": {}, "output_shape": [1], "output_shape_type": "raw"}, "inbound_nodes": [[["letter_probs", 0, 0, {}], ["the_labels", 0, 0, {}], ["input_length", 0, 0, {}], ["label_length", 0, 0, {}]]], "name": "ctc"}], "input_layers": [["log_mfes", 0, 0], ["the_labels", 0, 0], ["input_length", 0, 0], ["label_length", 0, 0]], "output_layers": [["ctc", 0, 0], ["letter_probs", 0, 0]], "name": "model_1"}, "backend": "tensorflow"}